Model: "sequential_2"
_________________________________________________________________
Layer (type)                 Output Shape              Param #
=================================================================
sequential_1 (Sequential)    (None, 180, 180, 3)       0
_________________________________________________________________
rescaling_2 (Rescaling)      (None, 180, 180, 3)       0
_________________________________________________________________
conv2d_3 (Conv2D)            (None, 180, 180, 16)      448
_________________________________________________________________
max_pooling2d_3 (MaxPooling2 (None, 90, 90, 16)        0
_________________________________________________________________
conv2d_4 (Conv2D)            (None, 90, 90, 32)        4640
_________________________________________________________________
max_pooling2d_4 (MaxPooling2 (None, 45, 45, 32)        0
_________________________________________________________________
conv2d_5 (Conv2D)            (None, 45, 45, 64)        18496
_________________________________________________________________
max_pooling2d_5 (MaxPooling2 (None, 22, 22, 64)        0
_________________________________________________________________
dropout (Dropout)            (None, 22, 22, 64)        0
_________________________________________________________________
flatten_1 (Flatten)          (None, 30976)             0
_________________________________________________________________
dense_2 (Dense)              (None, 128)               3965056
_________________________________________________________________
dense_3 (Dense)              (None, 5)                 645
=================================================================
Total params: 3,989,285
Trainable params: 3,989,285
Non-trainable params: 0
_________________________________________________________________
[<tf.Variable 'conv2d_3/kernel:0' shape=(3, 3, 3, 16) dtype=float32, numpy=
array([[[[ … dtype=float32)>, <tf.Variable 'conv2d_3/bias:0' shape=(16,) dtype=float32, numpy=
array([ … dtype=float32)>, <tf.Variable 'conv2d_4/kernel:0' shape=(3, 3, 16, 32) dtype=float32, numpy=
…
